Model: "sequential_1"
_________________________________________________________________
 Layer (type)                Output Shape              Param #
=================================================================
 lstm_3 (LSTM)               (None, 30, 64)            442112
 lstm_4 (LSTM)               (None, 30, 128)           98816
 lstm_5 (LSTM)               (None, 64)                49408
 dense_3 (Dense)             (None, 64)                4160
 dense_4 (Dense)             (None, 32)                2080
 dense_5 (Dense)             (None, 3)                 99
=================================================================
Total params: 596,675
Trainable params: 596,675
Non-trainable params: 0
_________________________________________________________________
Model: "sequential_1"
_________________________________________________________________
 Layer (type)                Output Shape              Param #
=================================================================
 lstm_3 (LSTM)               (None, 30, 64)            442112
 lstm_4 (LSTM)               (None, 30, 128)           98816
 lstm_5 (LSTM)               (None, 64)                49408
 dense_3 (Dense)             (None, 64)                4160
 dense_4 (Dense)             (None, 32)                2080
 dense_5 (Dense)             (None, 3)                 99
=================================================================
Total params: 596,675
Trainable params: 596,675
Non-trainable params: 0
_________________________________________________________________
Model: "sequential_1"
_________________________________________________________________
 Layer (type)                Output Shape              Param #
=================================================================
 lstm_3 (LSTM)               (None, 30, 64)            442112
 lstm_4 (LSTM)               (None, 30, 128)           98816
 lstm_5 (LSTM)               (None, 64)                49408
 dense_3 (Dense)             (None, 64)                4160
 dense_4 (Dense)             (None, 32)                2080
 dense_5 (Dense)             (None, 3)                 99
=================================================================
Total params: 596,675
Trainable params: 596,675
Non-trainable params: 0
_________________________________________________________________
Model: "sequential_1"
_________________________________________________________________
 Layer (type)                Output Shape              Param #
=================================================================
 lstm_3 (LSTM)               (None, 30, 64)            442112
 lstm_4 (LSTM)               (None, 30, 128)           98816
 lstm_5 (LSTM)               (None, 64)                49408
 dense_3 (Dense)             (None, 64)                4160
 dense_4 (Dense)             (None, 32)                2080
 dense_5 (Dense)             (None, 3)                 99
=================================================================
Total params: 596,675
Trainable params: 596,675
Non-trainable params: 0
_________________________________________________________________
Model: "sequential_1"
_________________________________________________________________
 Layer (type)                Output Shape              Param #
=================================================================
 lstm_3 (LSTM)               (None, 30, 64)            442112
 lstm_4 (LSTM)               (None, 30, 128)           98816
 lstm_5 (LSTM)               (None, 64)                49408
 dense_3 (Dense)             (None, 64)                4160
 dense_4 (Dense)             (None, 32)                2080
 dense_5 (Dense)             (None, 3)                 99
=================================================================
Total params: 596,675
Trainable params: 596,675
Non-trainable params: 0
_________________________________________________________________
Model: "sequential_1"
_________________________________________________________________
 Layer (type)                Output Shape              Param #
=================================================================
 lstm_3 (LSTM)               (None, 30, 64)            442112
 lstm_4 (LSTM)               (None, 30, 128)           98816
 lstm_5 (LSTM)               (None, 64)                49408
 dense_3 (Dense)             (None, 64)                4160
 dense_4 (Dense)             (None, 32)                2080
 dense_5 (Dense)             (None, 3)                 99
=================================================================
Total params: 596,675
Trainable params: 596,675
Non-trainable params: 0
_________________________________________________________________
Model: "sequential_1"
_________________________________________________________________
 Layer (type)                Output Shape              Param #
=================================================================
 lstm_3 (LSTM)               (None, 30, 64)            442112
 lstm_4 (LSTM)               (None, 30, 128)           98816
 lstm_5 (LSTM)               (None, 64)                49408
 dense_3 (Dense)             (None, 64)                4160
 dense_4 (Dense)             (None, 32)                2080
 dense_5 (Dense)             (None, 3)                 99
=================================================================
Total params: 596,675
Trainable params: 596,675
Non-trainable params: 0
_________________________________________________________________
Epoch 1/200
1/1 [==============================] - 3s 3s/step - loss: 1.1016 - categorical_accuracy: 0.1786
Epoch 2/200
1/1 [==============================] - 0s 84ms/step - loss: 7.1171 - categorical_accuracy: 0.3929
…
1/1 [==============================] - 0s 82ms/step - loss: 0.4659 - categorical_accuracy: 0.8929
Epoch 198/200
1/1 [==============================] - 0s 81ms/step - loss: 0.4301 - categorical_accuracy: 0.8571
Epoch 199/200
1/1 [==============================] - 0s 84ms/step - loss: 0.3883 - categorical_accuracy: 0.8929
Epoch 200/200
1/1 [==============================] - 0s 82ms/step - loss: 0.3363 - categorical_accuracy: 0.8929
Model: "sequential_2"
_________________________________________________________________
 Layer (type)                Output Shape              Param #
=================================================================
 lstm_6 (LSTM)               (None, 30, 64)            442112
 lstm_7 (LSTM)               (None, 30, 128)           98816
 lstm_8 (LSTM)               (None, 64)                49408
 dense_6 (Dense)             (None, 64)                4160
 dense_7 (Dense)             (None, 32)                2080
 dense_8 (Dense)             (None, 3)                 99
=================================================================
Total params: 596,675
Trainable params: 596,675
Non-trainable params: 0
_________________________________________________________________
Video ID :  69241
Total Frames:  75.0
Video ID :  65225  does not exist
Video ID :  68011  does not exist
Video ID :  68208  does not exist
Video ID :  68012  does not exist
Video ID :  70212  does not exist
…
